model/semanticsegmentation_frozen_person_quantized_08.tflite (tflite, 639520 bytes, 62 tensors)

batch_normalization/FusedBatchNorm_add_param f4 [8]
000000 40 05 90 bf 38 8e 48 c0 05 1a d7 3d ca a8 80 bf
       -1.1251602 -3.1336803 0.1050301 -1.005151
000010 c2 2f db bf 35 d5 11 bf c2 e9 dd bf 50 aa 6e bf
       -1.712395 -0.56965953 -1.7336962 -0.93228626

batch_normalization/FusedBatchNorm_mul_0_param f4 [8]
000000 49 b2 07 41 8a 6d 04 40 0b 1d e3 41 dd 9c 7c 40
       8.481027 2.0691857 28.389181 3.9470742
000010 64 cd 8c 40 03 e0 b6 40 3d 6a 20 40 6d 3b bd 3f
       4.400072 5.714845 2.5064843 1.478376

batch_normalization_1/FusedBatchNorm_add_param f4 [8]
000000 28 0f 1e bf 21 c3 b3 bf 9f e3 4b bf cb 91 0f bf
       -0.61741877 -1.4043924 -0.796442 -0.5608184
000010 4f 4f 7b bf 84 5e 83 bf 43 c0 38 bf f1 e2 09 bf
       -0.9816789 -1.0263219 -0.7216837 -0.5386191

batch_normalization_1/FusedBatchNorm_mul_0_param f4 [8]
000000 ce ed 87 3e d2 a5 22 3f 9e 57 05 3f 30 52 a5 3e
       0.26548618 0.6353427 0.5208682 0.32289267
000010 69 31 10 3f ec fd 8f 3e 51 b9 8f 3e 66 b5 48 3e
       0.56325394 0.28123415 0.28071073 0.19600448

batch_normalization_2/FusedBatchNorm_add_param f4 [16]
000000 8f 4d 55 bf 8e 60 87 bf 8f af 7d bf 87 b9 3a bf
       -0.8332147 -1.0576341 -0.99096006 -0.7293934
000010 d0 b6 57 bf b4 c8 62 bf 06 1f dd be 58 d5 af be
       -0.84263325 -0.885875 -0.43187732 -0.34342456
000020 a4 6f 7d bf fe 3c 3e bf 64 22 70 bf 32 42 32 bf
       -0.98998475 -0.74311817 -0.93802476 -0.69632256
000030 67 80 55 bf d8 9c 3c bf 9d 54 21 bf 8e f7 31 bf
       -0.8339905 -0.73676825 -0.63019735 -0.69518363

batch_normalization_2/FusedBatchNorm_mul_0_param f4 [16]
000000 05 94 7c 3f e1 93 d0 3e 1d a7 ba 3f d9 ad c3 3f
       0.9866336 0.40737823 1.4582249 1.5287429
000010 56 16 6c 3f 4e df a4 3e b5 f3 83 3f cb db f0 3e
       0.9222158 0.32201618 1.0308748 0.4704269
000020 8a e8 bc 3e c7 c8 22 3f 68 d6 c9 3f bb 1b 19 3f
       0.36896163 0.6358761 1.5768557 0.5980794
000030 87 8f 43 3f f8 0a 87 3f c8 ed 66 3f 0e 78 59 3f
       0.7639088 1.0550222 0.90206575 0.84948814

batch_normalization_3/FusedBatchNorm_add_param f4 [16]
000000 bf 87 04 bf 58 ec 48 bf d2 d1 30 bf 06 99 5d bf
       -0.5176963 -0.7848563 -0.6907016 -0.8656162
000010 f2 75 2b bf 72 25 03 bf 76 4b c6 be 39 7c 1b bf
       -0.66976845 -0.5122901 -0.38729447 -0.60736424
000020 d9 8f 5c bf 9f 8f 33 bf e2 48 b5 be 9b 79 06 bf
       -0.86156994 -0.70141023 -0.35407168 -0.52529305
000030 be ee 29 bf b7 5e 59 bf 1d a4 f9 be d8 16 53 bf
       -0.66379917 -0.8491015 -0.4875802 -0.8245673

batch_normalization_3/FusedBatchNorm_mul_0_param f4 [16]
000000 67 06 54 3e 1a ee e5 3e 3f 9d b2 3e ce de f8 3e
       0.20705567 0.4490822 0.34885594 0.48607486
000010 33 25 af 3e 0b 3f b1 3e 1b 1a 88 3e 14 a7 a9 3e
       0.34208068 0.3461841 0.26582417 0.33135283
000020 76 d6 a1 3e 74 27 b1 3e 4c 5b 5c 3e 55 73 a3 3e
       0.31608933 0.34600413 0.21519202 0.3192393
000030 e9 21 ef 3e 60 8e 8e 3e 78 b2 bf 3e 5c fe cf 3e
       0.4670556 0.27842999 0.37440848 0.40623748

batch_normalization_4/FusedBatchNorm_add_param f4 [32]
000000 50 ee 28 be d2 e9 a2 be 6d 7f a8 be 5e 3a 11 bf
       -0.16497159 -0.31819016 -0.32909718 -0.56729686
000010 00 da 8d be 4c 76 e6 be 18 39 80 bf cd fe 28 bf
       -0.27705383 -0.45012128 -1.0017424 -0.66013795
000020 c4 b4 2a bf 3c 88 13 bf e7 43 0a bf fb c6 01 bf
       -0.66682076 -0.5762975 -0.5400986 -0.50694245
000030 a4 6e 78 be 95 0e f7 be 98 7c 68 bf 0a 28 2c bf
       -0.24260956 -0.48253313 -0.90815115 -0.67248595
000040 5c 39 33 bf 9a 76 be be 7b ad 7f be 20 65 35 bf
       -0.700094 -0.3719986 -0.24968521 -0.7085743
000050 10 88 00 bf b6 3d 1b bf e5 2f e8 be 57 60 2b bf
       -0.50207615 -0.6064104 -0.4534904 -0.6694388
000060 53 c5 a0 be ef a6 1a bf 93 df 02 bf a5 5e b6 be
       -0.31400546 -0.6041097 -0.511224 -0.35619083
000070 cc d0 7c be 81 6a af be fa ec 29 be 33 3c fb be
       -0.24689025 -0.34260944 -0.16594306 -0.49069366

batch_normalization_4/FusedBatchNorm_mul_0_param f4 [32]
000000 5a 3f eb 3e cc 94 09 3f 0f 5b 89 3e e8 03 50 3f
       0.4594677 0.5374267 0.26827285 0.8125596
000010 69 b5 23 3f e7 37 77 3e 47 ff aa 3e ea 05 fb 3e
       0.63948685 0.24142419 0.33397886 0.4902795
000020 5c 2c ad 3e d6 ae 36 3f 9c fb 67 3f 75 ea 20 3f
       0.33822906 0.7136053 0.906183 0.62857753
000030 b6 40 f9 3e b2 aa 1a 3f 99 62 d1 3e 56 6f 3f 3f
       0.48682183 0.6041671 0.40895537 0.7477926
000040 fc 28 3b 3f 09 8f c2 3e d9 fd af 3e d0 1a 00 3f
       0.7310941 0.37999752 0.34373358 0.5004091
000050 fb b9 b3 3e 62 34 28 3f 8d e6 12 3f 2d 55 3a 3f
       0.3510283 0.6570493 0.5738304 0.7278622
000060 ea 9c 32 3f cc 28 11 3f b9 d1 3a 3f 8c 13 e6 3e
       0.6977068 0.56702876 0.7297626 0.44936788
000070 28 be 04 3f 22 b0 11 3f 73 83 c3 3e fd af b6 3e
       0.51852655 0.5690938 0.38186225 0.35681143

batch_normalization_5/FusedBatchNorm_add_param f4 [32]
000000 da 1c f9 be b6 59 7f bf 63 6b 86 be 5d 89 86 be
       -0.48654824 -0.99746263 -0.26253805 -0.26276675
000010 2b b8 e8 be a2 97 2b bf bb 64 2e bf b0 77 8d be
       -0.4545301 -0.6702825 -0.6812245 -0.27630377
000020 5b 88 df be 5b ea d7 be fa b0 d4 be 4d f5 65 bf
       -0.43658718 -0.42170987 -0.41541272 -0.89827424
000030 1e e0 f0 be 29 75 ea be d4 a4 36 be e8 a3 a8 be
       -0.47045988 -0.4579251 -0.17836314 -0.3293755
000040 77 22 bb be a4 57 d8 be 95 df c0 be e0 18 0b bf
       -0.36549732 -0.42254364 -0.3767058 -0.5433483
000050 02 f7 d2 be 6c 30 94 bd da 08 08 bf 64 73 5b be
       -0.41204077 -0.07235798 -0.53138506 -0.21430737
000060 b0 6a f6 be aa 0e 00 bf 12 3c f0 be 98 42 f6 bd
       -0.4812827 -0.50022376 -0.4692083 -0.120244205
000070 e0 f8 47 be 88 87 15 bf 98 05 63 be b6 5f c5 be
       -0.19528532 -0.5840993 -0.22170103 -0.38549584

batch_normalization_5/FusedBatchNorm_mul_0_param f4 [32]
000000 6d 78 7b 3e 39 33 b3 3e eb c5 89 3e 85 7f d9 3e
       0.24557658 0.35000017 0.26908812 0.42480102
000010 a9 27 8c 3e 8e 6b 9d 3e 03 0e ce 3e 10 aa 47 3e
       0.27374008 0.3074612 0.40245065 0.19498467
000020 68 01 6a 3e 61 ad a7 3e 48 74 a4 3e 1a 9c 92 3e
       0.22852099 0.32749465 0.32119966 0.2863472
000030 fb ab 8f 3e da 28 9a 3e a2 f3 84 3e d1 38 a0 3e
       0.28060898 0.30109292 0.25967127 0.31293347
000040 cf 5a c5 3e 36 01 b7 3e ac 79 91 3e ae 27 98 3e
       0.38545844 0.3574311 0.2841314 0.29717773
000050 f0 48 92 3e 0d d8 f1 3e 37 89 b0 3e 40 f3 7b 3e
       0.28571272 0.47235146 0.34479687 0.24604511
000060 b2 0a 10 3e fc 1d d4 3e f2 7a a2 3e 53 1d 09 3f
       0.1406658 0.41429126 0.31734425 0.5356037
000070 96 46 d1 3e a3 cc aa 3e a5 68 af 3e 9e fd 94 3e
       0.40874165 0.3335925 0.34259525 0.29099745

batch_normalization_6/FusedBatchNorm_add_param f4 [64]
000000 92 ba 21 be 40 1a f4 bb d0 bf b5 be 46 cd a4 be
       -0.15793827 -0.0074494183 -0.35497904 -0.3218786
000010 84 c1 ce bd 30 4a cc 3c d2 8c b3 be 49 8c 56 be
       -0.10095504 0.02493772 -0.35068375 -0.20951952
000020 28 71 4e 3d 00 7a 1a 3c 4b bb 63 be ff f8 0c bf
       0.050400883 0.009428501 -0.22239415 -0.5506744
000030 06 53 c3 be 38 5c 8e 3d 9d 97 8b be 00 2a 3f bc
       -0.3814928 0.06951183 -0.2726411 -0.011667728
000040 b8 9e 6e be 39 f1 04 bf 78 c7 c9 3d dc 2b 7e be
       -0.23302734 -0.51930577 0.09852499 -0.24821419
000050 00 ae a3 bd 12 07 61 bf 03 b3 c5 be 68 ed d6 be
       -0.07992172 -0.87901413 -0.38613138 -0.41978002
000060 2e a2 e2 be e6 9f 16 bf 7c cf 16 bf 28 37 c4 be
       -0.44264358 -0.58837736 -0.58910346 -0.3832333
000070 dc ff c7 be 00 2a 6b 3a b1 12 e1 be d0 5b 16 3e
       -0.39062393 0.0008970797 -0.43959573 0.14683461
000080 60 a2 e7 3c a5 36 94 3e d0 f9 8b 3d 50 d0 40 be
       0.028275669 0.2894794 0.06834757 -0.18829465
000090 de c3 0f bf 40 ff 81 3b dc ab 18 3e 0d 66 d2 be
       -0.56158245 0.0039671957 0.14909309 -0.41093484
0000a0 62 93 5a be c4 07 7c be 49 de 4a bf 74 6a b6 bd
       -0.21345285 -0.24612337 -0.7924543 -0.08907023
0000b0 ba 85 05 bf cb 09 e4 be a2 6d 22 be b8 b4 50 bd
       -0.52157176 -0.4453872 -0.15862134 -0.050953597
0000c0 41 40 bc be 3c 79 32 bf d0 91 c2 3c 38 ff 0c 3d
       -0.36767772 -0.6971624 0.02375117 0.034423083
0000d0 5d d0 35 bf 20 48 75 bc f0 85 b6 be 88 02 83 3e
       -0.7102106 -0.014970809 -0.3564906 0.2558787
0000e0 16 3c 8d bd 96 65 a7 bd 02 ae 63 3e 74 39 a1 bd
       -0.06896226 -0.08173673 0.22234347 -0.078722864
0000f0 2c 52 18 3e 20 64 bd 3d 4d 76 eb bd 34 84 9a bf
       0.14875096 0.09247613 -0.114971735 -1.2071595

batch_normalization_6/FusedBatchNorm_mul_0_param f4 [64]
000000 df e9 ed 3e 99 3a 31 3f 5f d6 c1 3e 29 6a d5 3e
       0.46467492 0.6923004 0.37858865 0.41682556
000010 1d 62 79 3f ba b8 34 3f c2 43 79 3e ad 87 d1 3e
       0.97415334 0.7059437 0.24342254 0.40923825
000020 5e 4c b8 3e 3d 64 70 3f e4 a5 c4 3e e0 d5 59 3e
       0.35995764 0.9390295 0.38407815 0.21272993
000030 e4 05 fd 3e aa 46 15 3f c7 a3 2c 3f ed 9f d5 3e
       0.49418557 0.5831095 0.67437404 0.41723576
000040 43 24 e9 3e a9 3a eb 3e cf 06 19 3f 72 42 de 3e
       0.45535478 0.45943192 0.59776014 0.4341007
000050 1d 74 fd 3e f0 67 60 3e ff b6 14 3f c3 f4 51 3f
       0.4950265 0.21914649 0.5809173 0.820141
000060 f4 2c 29 3e 61 5e 90 3e bc dc bf 3e b2 2a 07 3f
       0.16521055 0.28197005 0.37473094 0.5279952
000070 bf fd cd 3e 0f 32 4d 3f 17 59 19 3f 4e f5 2f 3f
       0.40232655 0.8015451 0.59901565 0.6873368
000080 25 76 29 3f 5f 5d 30 3f 4a b1 28 3f 66 43 e7 3e
       0.661959 0.68892473 0.6589552 0.45168608
000090 09 bf b6 3e 4c 80 dd 3e ae 45 06 3f 22 1e 04 3f
       0.35692623 0.43261945 0.5245007 0.5160848
0000a0 4d ea 1c 3f 7f 3f 9c 3e b4 2d b8 3e 92 8d de 3e
       0.61295015 0.30517194 0.3597237 0.43467385
0000b0 00 01 d4 3e cc 24 c9 3e 86 f4 c9 3e 54 3d 89 3e
       0.41407013 0.39285886 0.3944437 0.26804602
0000c0 0a 4b ef 3e 5a ab d4 3e 62 28 1b 3f 31 d6 fc 3e
       0.46736938 0.4153698 0.60608494 0.49382165
0000d0 8b f8 c3 3e 54 fb c2 3e 65 ed 94 3e 6f 5f 36 3f
       0.3827556 0.38082373 0.29087368 0.7123937
0000e0 bf 01 86 3f b0 81 0a 3f d1 2f 49 3f 01 de ae 3e
       1.0469283 0.5410414 0.7858859 0.3415375
0000f0 67 e6 4a 3f 63 c9 f0 3e 8b 4b 4f 3f 04 57 30 3e
       0.79257816 0.47028646 0.80974644 0.17220694

batch_normalization_7/FusedBatchNorm_add_param f4 [64]
000000 aa 36 fd be c3 5f c3 be 87 55 c2 be b7 e8 be be
       -0.49455768 -0.38158998 -0.37955877 -0.37286922
000010 a6 07 af be 41 05 64 be a6 7e c7 be 44 96 1a bf
       -0.34185523 -0.22267629 -0.38963813 -0.6038554
000020 4e 7e a6 be 71 ae 5f be 3a ae a9 be b8 7b 07 bf
       -0.32518238 -0.21843888 -0.33140737 -0.52923155
000030 76 db b3 be 5c 4f ad be a1 2a 08 bf 74 af f2 be
       -0.35128373 -0.3384961 -0.53190047 -0.47399485
000040 a2 9b 83 be e4 3c bd be 9a fd 25 be e8 15 00 bf
       -0.25704676 -0.36960518 -0.16210023 -0.50033426
000050 16 31 40 bf 9b 47 99 be 7f cc 96 be b0 46 ba be
       -0.750749 -0.29937443 -0.29452893 -0.36382055
000060 81 48 cb be 99 be 1a bf cd 55 98 be 30 37 ba be
       -0.39703754 -0.6044708 -0.2975296 -0.3637023
000070 5c 0a 7e be e9 0e 96 be 08 1e 87 be 0b a3 b3 be
       -0.2480864 -0.2930825 -0.263901 -0.3508533
000080 fe 0d 15 bf f9 02 fe be 6f 7a bf be a1 08 e7 be
       -0.58224475 -0.49611643 -0.37398097 -0.4512377
000090 f5 b7 bc be 16 77 0a bf 62 fe 1e be ff 5e a1 be
       -0.36859098 -0.5408796 -0.15526727 -0.3151779
0000a0 7d 0b ac be 11 e1 08 bf 9b ea db be f8 55 b5 be
       -0.33602515 -0.53468424 -0.42952427 -0.3541715
0000b0 f8 d2 98 be b6 73 df be a7 ed e9 be 0e 85 09 bf
       -0.29848456 -0.43642968 -0.45689127 -0.5371865
0000c0 dd e4 05 bf b6 90 e6 be de c5 13 bf 33 5c 8b be
       -0.5230234 -0.4503228 -0.57723796 -0.2721878
0000d0 0c 58 ac be f8 36 a1 be cc 36 fc be 39 24 8d be
       -0.33660924 -0.3148725 -0.49260557 -0.27566698
0000e0 59 4e be be cb ce aa be 89 5f c4 be 52 0b 97 be
       -0.3716915 -0.33360896 -0.38354138 -0.29500824
0000f0 f7 63 d5 be 26 19 20 be 06 34 ad be f6 21 08 bf
       -0.4167783 -0.15634593 -0.33828753 -0.5317682

batch_normalization_7/FusedBatchNorm_mul_0_param f4 [64]
000000 1d 84 b2 3e 02 5b 2f 3f e9 93 18 3f 31 34 bb 3e
       0.3486642 0.6849824 0.59600693 0.36563256
000010 72 ab e4 3e ac b4 64 3f 55 45 1c 3f ff bd ef 3e
       0.44662052 0.89338183 0.6104329 0.46824643
000020 bb e7 0e 3f 91 a2 12 3f 3d 7c 93 3e 9d 29 02 3f
       0.5582234 0.57279307 0.28805724 0.50844747
000030 61 11 9c 3e a2 37 25 3f 68 fa e3 3e 06 99 fe 3e
       0.3048201 0.64538014 0.44526982 0.49726123
000040 42 ce 4a 3f 9d ae 37 3f b1 56 24 3f 0d a1 9d 3e
       0.79220974 0.71750814 0.6419478 0.30786934
000050 52 f5 96 3e 16 d1 06 3f c6 35 29 3f 9d 03 06 3f
       0.2948404 0.5266279 0.66097677 0.52349263
000060 f8 4d a6 3e 8b a0 cf 3e d9 91 0b 3f 68 e0 0b 3f
       0.3248136 0.40552172 0.5451942 0.5463929
000070 d1 0c 8a 3e 36 a1 cc 3e 95 4a 1e 3f e0 c0 08 3f
       0.26962903 0.39966744 0.61832553 0.53419304
000080 42 89 e5 3e 91 91 d3 3e 41 a0 33 3f 0c c4 a2 3e
       0.44831282 0.41321996 0.70166403 0.31790197
000090 9e 9a b1 3e ad 62 ea 3e 24 d0 8d 3f f5 7f f5 3e
       0.34688276 0.4577841 1.1079144 0.47949186
0000a0 7a c4 11 3f 93 a0 7b 3e 23 45 d7 3e d8 d6 ed 3e
       0.56940424 0.24572973 0.42044935 0.46452975
0000b0 48 f5 14 3f f7 ba 07 3f 21 e8 d5 3e 41 19 d2 3e
       0.5818677 0.5301966 0.41778663 0.41034892
0000c0 a3 82 db 3e 31 68 07 3f 32 23 93 3e ce d1 ff 3e
       0.42873105 0.5289336 0.2873779 0.49964756
0000d0 d2 97 4c 3f 81 37 34 3f c3 8f 6b 3e 73 03 4a 3f
       0.7991916 0.7039719 0.2300406 0.78911513
0000e0 8b 4e f5 3e 49 30 e0 3e 4c 34 e3 3e 85 c7 2a 3f
       0.47911486 0.4378684 0.44375837 0.6671069
0000f0 42 0b 90 3e cf 30 06 3f e4 7e b3 3e e1 fb c9 3e
       0.2813359 0.52418226 0.35057747 0.3944998

conv2d/Conv2D_bias f4 [8]
000000 bf 81 97 3d 2d 98 2b 3f e7 80 97 3d 2d 38 e7 3c
       0.07397794 0.67029077 0.07397633 0.028225029
000010 a1 dc a0 3e e3 68 d6 3c af a0 da 3e ff 1d f5 bd
       0.31418326 0.02617306 0.42700717 -0.11968612

conv2d/kernel f4 [8, 3, 3, 3]
000000 7b ed 7f be 2d 89 ae 3e 4d e6 96 be d6 b0 ac be
       -0.24992935 0.34089032 -0.2947258 -0.33728665
000010 e0 2a 63 3e dc 3b 11 be f2 c5 52 bc e6 74 55 3d
       0.22184324 -0.14182991 -0.012864577 0.052113436
000020 16 e4 a0 3c 20 ef 15 3c 11 05 83 3e 9a 69 e6 3d
       0.01964001 0.00915125 0.25589803 0.11250611
000030 6b 39 07 3e ae 74 65 bc d2 89 10 3e 0d 5e 92 be
       0.13205497 -0.014004869 0.14115074 -0.2858738
000040 de 0d ae 3e 29 4e 39 be fb 67 fc bd f6 e8 3f 3d
       0.33994955 -0.18096222 -0.1232452 0.04685303
000050 8c 91 9a bd 2b cd 42 bb 81 76 b6 3e ec ba f0 bd
       -0.07547292 -0.002972434 0.35637286 -0.117544025
000060 2f 9a 65 be 06 71 bb 3e f5 d5 ef bd c0 f4 b2 3d
       -0.22422098 0.36609668 -0.11710731 0.087380886
000070 f1 04 a9 be 52 1c 05 3d 6e db 4e 3e dd 83 d3 bd
       -0.33011582 0.03249771 0.20200893 -0.10327885
000080 2f a5 4f bd ee be de 3e 8f f8 86 bd 30 72 d7 bb
       -0.05069464 0.43505043 -0.065903775 -0.0065748915
000090 fc 14 cc 3c d4 f0 8a be 35 12 ed bd f6 63 95 3e
       0.02491235 -0.27136862 -0.11575738 0.29177827
0000a0 aa e4 70 be fe 52 86 bc 56 be d2 3e 28 3a 3c 3e
       -0.23524728 -0.016396996 0.4116084 0.1838156
0000b0 2d cf 22 3e 18 02 ad 3e a3 7d a0 bd 4b 4c 29 bc
       0.15899344 0.3379066 -0.07836463 -0.010333131
0000c0 99 9d a4 3e b2 6a b9 bd 7c ce 86 bd 52 40 17 3f
       0.32151487 -0.09053554 -0.065823525 0.5908252
0000d0 77 25 e7 3d 43 d9 cf bd 72 69 a7 bc e8 78 28 bf
       0.11286443 -0.10148861 -0.020436022 -0.6580949
0000e0 c3 a3 9d be 86 23 e0 3d b2 22 5b 3d fb f9 99 be
       -0.30789003 0.109442756 0.053499885 -0.30073532
0000f0 ad 85 03 bf ff 50 39 bd 6f 11 10 bf 8e 1c eb bc
       -0.5137585 -0.04524326 -0.562766 -0.02870014
000100 6d ac 94 be 45 86 ca bd 74 2f ed bc ff 2e 6c be
       -0.290378 -0.09888891 -0.028953291 -0.23064803
000110 c0 28 9a 3e 2c 8e eb bd 3b f8 a8 be 03 26 ab 3d
       0.30109215 -0.115017265 -0.33001885 0.083568595
000120 03 55 a7 be 4c 79 5c be 47 a5 c1 3d 68 70 2d bd
       -0.32682046 -0.21530646 0.09455352 -0.042343527
000130 c1 30 a3 be 1f da ca bd b4 86 9a 3e 4b b5 13 3d
       -0.31873134 -0.099048845 0.30180895 0.036061566
000140 3a 43 ab be 9d 17 a4 be e6 9d 2c be d2 9f 8e 3e
       -0.33449727 -0.32049266 -0.16857108 0.27856308
000150 85 d9 ce 3d 06 62 b1 bb be 88 a0 3e cd d3 ef bd
       0.10100082 -0.0054132966 0.31354326 -0.1171032
000160 88 48 f0 bd a2 23 cd 3e 70 9b e9 bc 99 47 10 3d
       -0.11732584 0.40066248 -0.028516501 0.03522453
000170 b1 71 a0 3e d7 8d 80 be 12 d2 9b be 82 c3 c2 3e
       0.3133674 -0.25108215 -0.30433708 0.38039786
000180 aa 3e db 3d c9 cd 0b be e7 4a 27 3e 72 d0 2b be
       0.107053116 -0.1365272 0.16337167 -0.16778734
000190 5b 3e 4b be d8 11 cd 3c b1 69 be bd f7 7c 8e bc
       -0.19848005 0.025032923 -0.09297503 -0.017393572
0001a0 a9 31 0c 3e cd 47 91 3d 3e a3 1f be dc 25 d9 3e
       0.13690819 0.07093773 -0.15589616 0.42411697
0001b0 41 8d a3 3d f8 12 35 3e 84 e3 91 3d e4 bd a7 bb
       0.079859264 0.17683017 0.07123473 -0.0051190723
0001c0 11 bf 6e 3e 43 f9 25 3e a0 db bb bd 54 3b a7 3e
       0.23315074 0.16208367 -0.091727495 0.3266245
0001d0 fe 39 39 be 9f 66 8f 3c 84 0d c8 3e 81 39 6b be
       -0.18088529 0.017504988 0.39072812 -0.22971155
0001e0 25 df 29 3d 30 69 f1 3e 75 6d 7f be 3c eb ac be
       0.041472573 0.47150564 -0.24944098 -0.3377322
0001f0 72 2e 26 3e 63 dd e8 bd 51 90 a6 bd 59 36 d8 3e
       0.16228655 -0.11370351 -0.08132995 0.42228964
000200 d5 f7 32 3d 5b 79 7a be fc 63 51 3e 33 32 a4 be
       0.043693382 -0.24460356 0.20448297 -0.3206955
000210 85 8a 39 be ae d2 6d 3d 8e d2 79 be 93 5c 6f 3e
       -0.18119247 0.058062248 -0.24396726 0.23375158
000220 3d dd 15 3c a4 ee b3 3e 20 a7 57 3e e7 f9 64 3e
       0.009146986 0.35143006 0.21059847 0.22360955
000230 d0 b4 d4 3a 97 a1 a1 be 38 9d 05 be 09 fc 28 be
       0.0016228203 -0.31568596 -0.13048255 -0.16502394
000240 48 f8 80 bd 6a d1 81 3e 48 77 b4 bc 8e 8c be 3c
       -0.06297356 0.25355083 -0.022029534 0.023260381
000250 81 eb 5e be 40 bc 09 bc 59 f8 c7 3d 62 40 ce be
       -0.21769525 -0.008406699 0.097641654 -0.40283495
000260 a0 e1 bb be 4e bf 7b 3e 93 63 d8 3d 61 77 60 3e
       -0.36695576 0.24584696 0.10565867 0.2192054
000270 fe d0 f2 bd 8f 9b 3a 3e 53 cb be 3d ea e1 89 be
       -0.11856268 0.18223403 0.09316125 -0.2693017
000280 9b 19 e1 be a0 d7 b5 3d a3 7e 40 bd b0 69 68 3e
       -0.43964848 0.08879018 -0.04699577 0.22696567
000290 c8 fa ed 3d 13 69 3c bd 71 55 e1 3d d7 db 5e 3e
       0.11620098 -0.045998644 0.11002625 0.2176355
0002a0 4b 04 86 be 72 1f 80 bd 03 e9 a5 3e 59 a4 53 bd
       -0.2617515 -0.06255998 0.32404336 -0.051670406
0002b0 ba 55 9f bd ff 20 d7 3e c4 8e ac bd 76 18 90 3e
       -0.07780023 0.42017362 -0.08425668 0.28143662
0002c0 f7 c6 98 3d ff 59 07 3e 87 ea 26 ba 2d 80 84 3b
       0.074598245 0.13217925 -0.0006367345 0.0040436
0002d0 e3 53 ea bd 32 f7 8d be 9d be e4 3e ec ad 97 be
       -0.11441781 -0.27727658 0.44676676 -0.2962488
0002e0 94 b1 42 bd 51 5d cc 3e 75 0a 6e bd 34 00 83 be
       -0.047532633 0.39914945 -0.05811544 -0.25586092
0002f0 26 46 03 3e d0 67 14 3e 0c 2c 93 bd 65 bc 3a be
       0.12819728 0.14492726 -0.07186136 -0.1823593
000300 b2 db 58 3e 47 51 eb 3d 79 b8 7f be 21 d0 08 3e
       0.21177557 0.11490112 -0.24972714 0.13360645
000310 f5 16 0f be 24 da e9 be ae 84 4d 3e 29 e9 d3 3e
       -0.13973601 -0.4567424 0.20070145 0.41388825
000320 a1 ac cf 3e 57 8a 6c bc 2d 41 2a 3b 1a d1 ce 3e
       0.40561393 -0.01443728 0.002597879 0.40393907
000330 2f bc 20 3e 76 88 71 be fb 2a 2a 3e 20 4e bb 3d
       0.15696786 -0.23587212 0.16617958 0.091457605
000340 f3 e4 62 3e 37 0d ba 3e 54 7a 2d 3e 5c 04 b5 3e
       0.2215765 0.36338207 0.16941196 0.35354888
000350 55 88 76 3e 77 79 2b be a4 74 16 be 95 1d 3b 3e
       0.24075444 -0.16745554 -0.14692932 0.18273003

conv2d_1/Conv2D_bias f4 [8]
000000 82 d4 1f 3e 80 7b b5 3e bb ca 85 3b 8a 5c 38 be
       0.15608409 0.35445786 0.0040830052 -0.18004051
000010 d9 96 47 3d 0f d2 1f 3f 7f da be 3e 60 0c 91 3e
       0.048727844 0.624299 0.37276074 0.28329754

conv2d_1/kernel f4 [8, 3, 3, 8]
000000 cb 88 77 3d 91 4d a6 3d 52 91 0e 3e 53 57 e3 3e
       0.06043319 0.08120263 0.13922623 0.4440256
000010 8a f5 b7 3e 21 ac f8 3c c7 a8 1a 3d db b1 13 be
       0.3592952 0.030355515 0.037758615 -0.14423315
000020 c8 81 2b be d1 95 8c be f8 b6 9d bd 39 3d 17 3e
       -0.16748726 -0.2745805 -0.07700914 0.14769448
000030 70 9c 59 3e d5 91 3a bd 8f 8f 59 3e 6d b6 ce bd
       0.21251082 -0.045549233 0.2124617 -0.10093389
000040 f2 39 81 be 4c 8c 97 be 58 3b b2 bc a9 a1 88 3e
       -0.2523952 -0.29599226 -0.021756813 0.26685837
000050 28 a6 63 3e 8d 0a 42 3d 02 49 01 3e dd 2c f2 bd
       0.22231352 0.047373343 0.12625507 -0.11824963
000060 3f d6 1e 3e 7b 24 a2 be 15 b1 58 3e f9 85 55 3e
       0.15511416 -0.31668457 0.21161301 0.20851888
000070 6c 30 7d 3d 4d 5f c8 bc 3b b6 38 3e f2 8a 4e 3e
       0.061813757 -0.024459505 0.18038265 0.20170191
000080 95 56 07 3e 5c 3d 42 3c ee 15 11 3e 74 74 c7 3e
       0.13216622 0.0118554495 0.14168522 0.38956034
000090 0d d7 66 3d 6f 78 9e bd e9 ca a1 3d 95 91 9d 3d
       0.056357432 -0.07737815 0.0790003 0.07693783
0000a0 23 1f 68 3e e3 69 a4 be 05 f9 0a 3d 04 87 98 3e
       0.22668128 -0.32112035 0.03392889 0.2979051
0000b0 9f 97 e5 3d d2 34 c9 3d 99 81 57 3d 26 eb da 3d
       0.1121056 0.09824528 0.05261383 0.10689382
0000c0 47 27 5d be dc 0e 48 be d2 b5 3f 3e df 46 ed 3e
       -0.21597014 -0.19536918 0.18721703 0.46343133
0000d0 07 ce a2 3c fe 45 d7 3d ae 83 e2 3d 3c bf bb bd
       0.019873632 0.10511397 0.11060272 -0.091673344
0000e0 8a 98 d3 bd 32 5f 76 3d 24 ec a0 bc 47 a5 01 3f
       -0.10331829 0.06014938 -0.01964385 0.5064282
0000f0 c3 41 52 3e 96 34 06 be cb e9 bb 3b e4 79 dc bc
       0.20532899 -0.13105997 0.0057346574 -0.02691359
000100 ed 89 ac be 58 7c a0 be 31 76 1b bd 39 f4 eb 3d
       -0.3369898 -0.31344867 -0.037954513 0.11521191
000110 91 19 6c 3c ad 9f 6f 3e 82 1b 53 3e 80 ac 0a be
       0.014410392 0.23400755 0.20615962 -0.13542366
000120 a9 cf 52 be ce f1 73 3d 51 98 cf 3d 67 e6 8d be
       -0.20587029 0.059556775 0.10136474 -0.27714846
000130 9f 5e 15 3e 3d ed 97 3d 78 04 53 bd de ae 87 3e
       0.14586876 0.074182965 -0.051517934 0.265006
000140 e2 3c 91 be 1a 58 c7 3d f6 54 88 3c 8b 56 78 be
       -0.28366762 0.09733601 0.016642075 -0.24251764
000150 d9 3f 83 3e a0 0d c7 bb df 32 78 3e 89 0a 1f 3e
       0.2563465 -0.0060746223 0.24238156 0.15531363
000160 b6 89 dc be fd df 59 be 12 38 aa 3d cd 9b 97 be
       -0.43073815 -0.21276851 0.08311476 -0.29611054
000170 02 c9 08 3e e7 0a f1 bd 07 44 3d 3e d2 7c a4 bc
       0.13357928 -0.117696576 0.18482982 -0.02007905
000180 5c 00 76 be 87 ae db bd d6 9b 27 3e f3 56 83 bc
       -0.24023575 -0.10726648 0.1636804 -0.016032672
000190 a6 db 9f 3d 60 b9 40 be 7a 05 90 3e df 4c 03 3e
       0.078055665 -0.18820715 0.28129178 0.12822293
0001a0 8f 55 33 bd 0b 90 4f 3e 37 b1 88 bd d4 67 91 be
       -0.043782767 0.20269792 -0.06674426 -0.28399527
0001b0 e8 93 40 3e a7 47 86 3c 03 bc 67 3e 3a f5 ad 3d
       0.18806422 0.016391588 0.22630315 0.08494039
0001c0 07 fd 5a be cf c6 f6 bd 73 a8 f1 bd e4 4a ab bd
       -0.21385585 -0.120496385 -0.11799707 -0.08363894
0001d0 9d d9 75 3e 8e c0 6b bd 36 5a 7c 3e 4a e1 c8 bc
       0.24008794 -0.05755668 0.24643788 -0.024521489
0001e0 31 bd 3b be 4f 19 1c 3c d4 cc 59 bd a6 26 fc 3c
       -0.1833389 0.009527518 -0.053173855 0.030780148
0001f0 cb 91 70 bd f1 ca f1 bc 26 1c cd 3e f9 e2 52 3e
       -0.05873279 -0.029515715 0.40060538 0.20594396
000200 2d b6 d8 bd bd 6b fc 3d 57 35 11 3e 11 6d 1b be
       -0.10581622 0.12325237 0.14180504 -0.15178324
000210 d1 d7 3c 3e 1a 81 8e be 97 d2 88 3d 36 ad e1 3b
       0.18441702 -0.27832872 0.06680792 0.0068871034
000220 e5 f1 6f be 17 da 4a be c8 1e 86 bb d6 b0 12 be
       -0.23432119 -0.19809757 -0.004093025 -0.1432527
000230 3d d2 83 3d f6 f4 d9 3d 85 e7 bb 3e b7 90 48 3e
       0.06436584 0.10642426 0.36700073 0.19586454
000240 3c 1f ce bd 14 1f f0 be 38 66 6b be e4 dc f5 3d
       -0.10064551 -0.4689871 -0.22988212 0.12005022
000250 34 e9 02 3e 45 7c d1 bd 1b 49 7d 3e 81 14 d5 bd
       0.12784272 -0.10228781 0.24734919 -0.104043014
000260 56 02 19 3e 77 c1 ea be b4 a8 34 bf 1d b2 54 3e
       0.14942297 -0.45850727 -0.7056992 0.2077107
000270 2b ef 45 be 6d ff 4c 3d 9b e5 b9 3d 5d fc 74 be
       -0.19329517 0.05004828 0.09076997 -0.23924394
000280 29 f8 2a be b7 db 92 be 7a 8a 95 be ca bd 46 bd
       -0.16696228 -0.28683254 -0.29207212 -0.04852084
000290 20 11 36 be d1 28 b5 bc 99 8f 06 bc da 24 fe bb
       -0.1777997 -0.02211419 -0.008212947 -0.007755858
0002a0 37 8d dd bd ce 2b 5f be 24 89 d2 be 77 43 83 3e
       -0.1081795 -0.21794054 -0.41120255 0.2563741
0002b0 e6 e1 54 be b3 ca b6 3c 0d d9 4e 3e 37 21 ae bd
       -0.20789298 0.022313451 0.20199986 -0.08502429
0002c0 ea f5 66 bd 3b 84 f8 bd e9 fc 33 bf ec 07 9a 3d
       -0.056386866 -0.12134596 -0.70307785 0.07521042
0002d0 67 99 0c bd 2e 59 a7 bd 81 f6 f2 3d bc 26 95 be
       -0.034325983 -0.081713066 0.11863423 -0.29131114
0002e0 ad 44 84 3e fe 32 f6 be ac 6a cd be 87 bc 57 3c
       0.25833645 -0.4808578 -0.40120447 0.013167507
0002f0 61 0a 96 3d 69 f5 82 be 1d db 0a 3e 56 8a 08 3b
       0.07326198 -0.25577858 0.13560148 0.0020834408
000300 9b 2c 33 3b 0c f9 e6 be bb ed 14 be f2 07 75 3c
       0.002733982 -0.45111883 -0.14543812 0.014955508
000310 3d e3 b3 be ef a0 8a 3c cd 2f ec 3a fd ec 25 be
       -0.35134307 0.016922442 0.0018019617 -0.16203685
000320 98 73 01 be 7b f4 02 bf 4b 91 05 bf 44 8b d5 bd
       -0.12641752 -0.511543 -0.52174824 -0.104269534
000330 e3 c4 c5 3d af 63 9a bd ad 0a 6b 3d e9 e0 3f bc
       0.09656694 -0.075385444 0.057383228 -0.011711338
000340 e7 0d 0f bd 2e 19 5e be 53 34 c7 be 78 2e 4e 3c
       -0.034925368 -0.21689293 -0.38907108 0.012584321
000350 05 a1 a7 bd db fb 2f 3e de ac 53 3d 75 75 79 be
       -0.08185009 0.17185919 0.05167853 -0.24361213
000360 fc aa 83 3d e5 d1 d2 be 8a 58 37 3e f7 97 78 be
       0.06429097 -0.41175762 0.17904869 -0.2427672
000370 e1 8f 30 be 08 ac 26 3e 4d 11 37 be f4 e7 a3 3d
       -0.17242385 0.16276562 -0.17877693 0.08003226
000380 98 a8 ff 3d fd c3 e0 be cf ce a1 3e 43 44 cf be
       0.124833286 -0.43899527 0.31603095 -0.40481767
000390 3e 51 81 be c0 7f a2 3d 36 80 56 bc 4e 53 c4 bd
       -0.25257295 0.07934523 -0.013092091 -0.095862016
0003a0 8a d1 a8 3e 12 79 0d bf 71 a9 a1 bc fd d8 12 be
       0.32972366 -0.55262864 -0.019734116 -0.14340587
0003b0 62 25 09 3d c2 3d c7 bd cc 1a 8f bc b1 b6 3f 3e
       0.033482917 -0.09728576 -0.017468832 0.18722035
0003c0 54 d9 75 bd 46 0a ee bd 05 e6 91 3e fa 1c a2 be
       -0.060021713 -0.11623053 0.28495803 -0.31662732
0003d0 d1 75 9d 3d 8f 79 81 3e 13 10 04 3e 5b 37 d9 3c
       0.07688487 0.25288054 0.12896757 0.026515653
0003e0 f1 23 75 be cc fa e4 be bf e1 eb 3c c8 a7 ae be
       -0.23939492 -0.44722593 0.028794168 -0.34112382
0003f0 53 1b 26 bd 79 6a e5 3d 2d 24 8d 3d 91 f2 99 bd
       -0.040553402 0.11201949 0.068916656 -0.07516969

conv2d_10/Conv2D_bias f4 [64]
000000 bc 00 01 3d 37 d6 cd bc 12 34 a2 bd 02 91 48 bd
       0.03149484 -0.02512656 -0.07920088 -0.048966415
000010 7c bf 02 3c 32 04 15 be 85 26 c9 bd 1e 37 1e bd
       0.007980224 -0.14552382 -0.098218 -0.038626783
000020 43 9e fa bd a2 e0 0e 3e f2 e7 37 3e 52 6b 5e bd
       -0.12237217 0.13952878 0.17959574 -0.054301567
000030 b4 8f 87 be af 75 61 3d 21 66 db bd ea 2a 48 be
       -0.26476824 0.055043872 -0.10712839 -0.1954762
000040 2e e4 89 3d e7 04 40 be 65 46 cc 3d 7a 06 0b 3d
       0.06732975 -0.1875187 0.09974364 0.033941723
000050 a3 31 f0 3d 9c 17 8f 3d 02 ad a9 3e bb 2e e7 bd
       0.117282175 0.06986925 0.33139807 -0.1128821
000060 f3 eb 93 be 30 10 59 3d d0 5f 1e be 8a 30 f9 3d
       -0.28890952 0.052993953 -0.15466237 0.12167461
000070 1b 94 59 3d 0b b7 c2 bd c9 fc 67 3d 1c 99 12 be
       0.05311976 -0.09507569 0.05663756 -0.14316219
000080 d2 5c 73 be 7b 97 01 bd b5 99 98 bd 89 85 82 3e
       -0.23765877 -0.031638604 -0.07451192 0.25492504
000090 0a 3f 98 3d c0 4b 96 bd e9 b9 c6 3d 96 57 4c 3e
       0.07433899 -0.07338667 0.09703428 0.19955286
0000a0 8e 8a f0 bd c2 06 89 bd 59 7b 02 be 70 7a 0b bd
       -0.11745177 -0.06690742 -0.12742366 -0.034052312
0000b0 72 b5 4f 3e 3a 34 07 be 14 f8 8f be 40 17 ad 3d
       0.2028406 -0.13203517 -0.28118956 0.084517
0000c0 67 74 c9 3c a3 6d 24 3e 98 1b 98 3e ec 50 95 3d
       0.024591638 0.16057448 0.29708552 0.07290825
0000d0 8d 25 40 3d 8a 4f bd 3d ce 13 47 be bc be c1 be
       0.04691081 0.092436865 -0.19441149 -0.3784083
0000e0 ac 97 8f be 0e a4 b0 ba c3 06 23 be 16 09 0e bd
       -0.28045404 -0.0013476626 -0.15920548 -0.034676634
0000f0 13 1a 97 be d7 0c d4 bd 08 23 f8 bc 14 e6 90 bb
       -0.2951208 -0.103540115 -0.030290142 -0.0044219587

conv2d_10/kernel u1 [64, 3, 3, 128] scale=0.0073838676 zero_point=0
000000 fd f9 f1 24 1b 14 02 00 17 05 0c 0d d8 f8 25 1b
       1.8681185 1.838583 1.779512 0.26581922 0.19936442 0.14767735 0.014767735 0.0 0.16982895 0.036919337 0.08860641 0.09599028 1.5949154 1.8311992 0.2732031 0.19936442
000010 0b ef 05 ea fa 1a f6 ec e9 f7 ff f9 15 07 ec e8
       0.08122254 1.7647444 0.036919337 1.727825 1.8459669 0.19198056 1.8164314 1.7425928 1.7204411 1.8238153 1.8828863 1.838583 0.15506122 0.051687073 1.7425928 1.7130573
000020 2f f3 f3 06 02 f0 00 0a f0 0e f6 0c f6 f8 c1 f9
       0.3470418 1.7942798 1.7942798 0.044303205 0.014767735 1.7721282 0.0 0.07383867 1.7721282 0.103374146 1.8164314 0.08860641 1.8164314 1.8311992 1.4250865 1.838583
000030 26 0d e5 e4 19 f9 f4 f5 00 0b 01 ef e2 04 f4 d6
       0.28058696 0.09599028 1.6909057 1.6835219 0.18459669 1.838583 1.8016638 1.8090476 0.0 0.08122254 0.0073838676 1.7647444 1.6687541 0.02953547 1.8016638 1.5801476
000040 e3 25 f7 08 e5 09 0f 31 25 f7 01 f9 d3 13 26 e5
       1.6761379 0.2732031 1.8238153 0.05907094 1.6909057 0.066454805 0.110758014 0.36180952 0.2732031 1.8238153 0.0073838676 1.838583 1.557996 0.14029348 0.28058696 1.6909057
000050 15 1a 23 f7 0d e9 22 04 d3 ff 0d cb fd 0a e3 08
       0.15506122 0.19198056 0.25843537 1.8238153 0.09599028 1.7204411 0.2510515 0.02953547 1.557996 1.8828863 0.09599028 1.4989251 1.8681185 0.07383867 1.6761379 0.05907094
000060 e1 04 de ed ef fc f0 ff 2a 0c 00 08 08 da e8 19
       1.6613702 0.02953547 1.6392186 1.7499766 1.7647444 1.8607347 1.7721282 1.8828863 0.31012243 0.08860641 0.0 0.05907094 0.05907094 1.6096832 1.7130573 0.18459669
000070 eb de 28 12 06 e1 ff 3d 22 e9 e6 fb 16 e9 df 02
       1.7352089 1.6392186 0.2953547 0.13290961 0.044303205 1.6613702 1.8828863 0.45041594 0.2510515 1.7204411 1.6982895 1.8533508 0.16244508 1.7204411 1.6466025 0.014767735
000080 12 f2 03 ff f7 12 08 ef 11 f8 ea fe d2 17 17 fe
       0.13290961 1.786896 0.022151602 1.8828863 1.8238153 0.13290961 0.05907094 1.7647444 0.12552574 1.8311992 1.727825 1.8755023 1.5506122 0.16982895 0.16982895 1.8755023
000090 00 f4 df e7 01 f5 fa e8 fe ee ff 0c eb 06 ed fa
       0.0 1.8016638 1.6466025 1.7056735 0.0073838676 1.8090476 1.8459669 1.7130573 1.8755023 1.7573605 1.8828863 0.08860641 1.7352089 0.044303205 1.7499766 1.8459669
0000a0 fe f3 ef f9 01 da e1 00 01 02 ff 03 0d ec db 0c
       1.8755023 1.7942798 1.7647444 1.838583 0.0073838676 1.6096832 1.6613702 0.0 0.0073838676 0.014767735 1.8828863 0.022151602 0.09599028 1.7425928 1.617067 0.08860641
0000b0 04 06 ee f6 0b ff f6 fc f5 fe 15 f4 fb 03 e4 01
       0.02953547 0.044303205 1.7573605 1.8164314 0.08122254 1.8828863 1.8164314 1.8607347 1.8090476 1.8755023 0.15506122 1.8016638 1.8533508 0.022151602 1.6835219 0.0073838676
0000c0 f3 0a d0 22 f1 1a fe 05 fe 17 00 05 0b 0e de c9
       1.7942798 0.07383867 1.5358444 0.2510515 1.779512 0.19198056 1.8755023 0.036919337 1.8755023 0.16982895 0.0 0.036919337 0.08122254 0.103374146 1.6392186 1.4841574
0000d0 e4 f7 f9 dd 19 08 10 e7 dd 3c fb 04 04 e5 d7 00
       1.6835219 1.8238153 1.838583 1.6318347 0.18459669 0.05907094 0.11814188 1.7056735 1.6318347 0.44303206 1.8533508 0.02953547 0.02953547 1.6909057 1.5875316 0.0
0000e0 e5 e5 0b f2 06 1c fe 0a e6 1a f6 0b 0b e3 d8 07
       1.6909057 1.6909057 0.08122254 1.786896 0.044303205 0.20674829 1.8755023 0.07383867 1.6982895 0.19198056 1.8164314 0.08122254 0.08122254 1.6761379 1.5949154 0.051687073
0000f0 ef 0d 05 1b eb 29 0c f5 04 d8 dc 14 12 06 cd eb
       1.7647444 0.09599028 0.036919337 0.19936442 1.7352089 0.30273858 0.08860641 1.8090476 0.02953547 1.5949154 1.6244509 0.14767735 0.13290961 0.044303205 1.5136929 1.7352089

conv2d_11/Conv2D_bias f4 [64]
000000 59 4c a2 bd 8e da 4f 3e 7b 89 b6 3d 10 3e 60 3d
       -0.079247184 0.20298216 0.08912941 0.054746687
000010 57 ca 01 bf dc 6c 28 3d 14 de 62 bc 7f 3d d8 bc
       -0.5069937 0.04111944 -0.013846893 -0.026396511
000020 b2 12 c0 3e e5 1f 73 3e 80 77 5d 3e ee f4 32 3d
       0.37514263 0.23742636 0.21627617 0.043690614
000030 dd 40 b5 3e ab 20 7f 3c b7 9a 2c 3e 28 02 c3 3e
       0.3540105 0.0155717535 0.16855894 0.38087583
000040 0e 97 46 be 34 3f 61 3d 03 18 5f 3e b1 3d 2d 3e
       -0.1939356 0.054991916 0.21786503 0.16918065
000050 51 de 59 3e 50 17 12 3e 33 87 16 be 3b 69 80 3e
       0.21276213 0.14266706 -0.14700012 0.25080284
000060 60 6d d1 bd fc 87 82 3e 77 6a 68 bd c8 d1 08 bf
       -0.1022594 0.25494373 -0.056742158 -0.534451
000070 93 cc 98 3d cc 42 97 bd 67 3e 8d 3d 55 91 6c bd
       0.074608944 -0.07385787 0.06896668 -0.057755787
000080 a9 1f 03 bf 0c d2 9f 3e 6e ce af 3e 72 a0 07 3d
       -0.51220185 0.3121494 0.3433718 0.033111997
000090 66 f8 c2 3e fd 79 8e 3e 6f db 00 3f a2 02 3c 3e
       0.38080138 0.27827445 0.5033483 0.1836038
0000a0 e0 85 08 bd 1c 76 51 be 65 53 8b 3d ec 3f 12 3e
       -0.0333308 -0.20455211 0.068030156 0.14282197
0000b0 f3 77 22 3c 23 d9 1f bb 30 37 04 3e 12 61 f1 3e
       0.009916293 -0.0024390898 0.12911677 0.4714437
0000c0 e2 c6 58 3c 27 b4 33 be b5 01 d6 bc f1 ba 88 bd
       0.013231011 -0.17549191 -0.02612386 -0.06676281
0000d0 35 c8 e3 bb 8b 68 04 3e 6c d2 72 bc e7 11 14 3e
       -0.006951357 0.12930505 -0.014820676 0.14459954
0000e0 88 ba 88 3e ec 5a bc 3d c8 a7 44 3c b1 6d 84 3e
       0.26704812 0.091970295 0.012002893 0.25864938
0000f0 a0 15 00 3e d9 66 fe 3d e6 99 3a 3e 2f 8b 5c 3e
       0.1250825 0.124219604 0.1822277 0.2153747

conv2d_11/kernel u1 [64, 3, 3, 64] scale=0.009277752 zero_point=0
000000 0c fd f9 09 1b f9 fc fe 12 0e f8 00 fa 08 03 03
       0.11133302 2.3472712 2.3101602 0.08349977 0.2504993 2.3101602 2.3379934 2.356549 0.16699953 0.12988852 2.3008823 0.0 2.319438 0.07422201 0.027833255 0.027833255
000010 fc 08 ff 08 ee ed dc e8 fa 27 0b 0e 06 eb d1 02
       2.3379934 0.07422201 2.3658266 0.07422201 2.2081048 2.198827 2.0411053 2.1524384 2.319438 0.36183232 0.10205527 0.12988852 0.05566651 2.1802716 1.9390501 0.018555503
000020 19 fe fc f2 f7 f6 fd f9 f9 e5 07 e3 0c 0c f9 10
       0.23194379 2.356549 2.3379934 2.245216 2.2916048 2.282327 2.3472712 2.3101602 2.3101602 2.1246052 0.06494426 2.1060495 0.11133302 0.11133302 2.3101602 0.14844403
000030 e5 0c ec 02 0a 12 fe f6 1e 13 10 f2 f8 03 f5 fc
       2.1246052 0.11133302 2.1895494 0.018555503 0.09277752 0.16699953 2.356549 2.282327 0.27833256 0.17627728 0.14844403 2.245216 2.3008823 0.027833255 2.273049 2.3379934
000040 ff 0b fb e8 08 f9 f8 f3 0e f9 ff 0f 0b 01 0a ff
       2.3658266 0.10205527 2.3287156 2.1524384 0.07422201 2.3101602 2.3008823 2.2544937 0.12988852 2.3101602 2.3658266 0.13916628 0.10205527 0.009277752 0.09277752 2.3658266
000050 0e 00 13 09 0a f8 fd fb f5 eb 0c fc 09 07 d4 f9
       0.12988852 0.0 0.17627728 0.08349977 0.09277752 2.3008823 2.3472712 2.3287156 2.273049 2.1802716 0.11133302 2.3379934 0.08349977 0.06494426 1.9668833 2.3101602
000060 f8 fe ee fa ff 03 ff db f6 f2 00 11 08 fd 07 1a
       2.3008823 2.356549 2.2081048 2.319438 2.3658266 0.027833255 2.3658266 2.0318277 2.282327 2.245216 0.0 0.15772177 0.07422201 2.3472712 0.06494426 0.24122155
000070 01 03 ff 01 04 fc 07 07 e8 0d 11 17 fc 17 e7 1a
       0.009277752 0.027833255 2.3658266 0.009277752 0.037111007 2.3379934 0.06494426 0.06494426 2.1524384 0.12061077 0.15772177 0.2133883 2.3379934 0.2133883 2.1431606 0.24122155
000080 07 0c 0a 0c 03 01 e9 fc ff e7 08 1d 00 f5 1a f6
       0.06494426 0.11133302 0.09277752 0.11133302 0.027833255 0.009277752 2.1617162 2.3379934 2.3658266 2.1431606 0.07422201 0.2690548 0.0 2.273049 0.24122155 2.282327
000090 0a e5 02 15 ea f8 dc 0b 0e 1e 02 fa 00 ef f3 17
       0.09277752 2.1246052 0.018555503 0.19483279 2.1709938 2.3008823 2.0411053 0.10205527 0.12988852 0.27833256 0.018555503 2.319438 0.0 2.2173827 2.2544937 0.2133883
0000a0 17 05 17 f6 ff 02 f9 f1 04 fc 05 1d 0f 19 02 0e
       0.2133883 0.04638876 0.2133883 2.282327 2.3658266 0.018555503 2.3101602 2.235938 0.037111007 2.3379934 0.04638876 0.2690548 0.13916628 0.23194379 0.018555503 0.12988852
0000b0 06 f0 04 05 17 05 f5 17 f9 f7 01 04 12 1b 0e f1
       0.05566651 2.2266605 0.037111007 0.04638876 0.2133883 0.04638876 2.273049 0.2133883 2.3101602 2.2916048 0.009277752 0.037111007 0.16699953 0.2504993 0.12988852 2.235938
0000c0 0f 07 0e 01 09 fc f9 f8 0a f9 f6 f7 fc 0a fc 04
       0.13916628 0.06494426 0.12988852 0.009277752 0.08349977 2.3379934 2.3101602 2.3008823 0.09277752 2.3101602 2.282327 2.2916048 2.3379934 0.09277752 2.3379934 0.037111007
0000d0 fd 00 06 06 00 f1 f6 01 03 08 0c 09 06 e4 d5 fa
       2.3472712 0.0 0.05566651 0.05566651 0.0 2.235938 2.282327 0.009277752 0.027833255 0.07422201 0.11133302 0.08349977 0.05566651 2.1153274 1.9761611 2.319438
0000e0 fc 02 dd f4 07 fb 01 d9 f9 e6 11 01 02 20 10 fe
       2.3379934 0.018555503 2.050383 2.2637713 0.06494426 2.3287156 0.009277752 2.013272 2.3101602 2.133883 0.15772177 0.009277752 0.018555503 0.29688805 0.14844403 2.356549
0000f0 fc 0a 09 f6 07 19 08 f4 fd 14 12 ff 00 09 05 f3
       2.3379934 0.09277752 0.08349977 2.282327 0.06494426 0.23194379 0.07422201 2.2637713 2.3472712 0.18555504 0.16699953 2.3658266 0.0 0.08349977 0.04638876 2.2544937

conv2d_12/Conv2D_bias f4 [32]
000000 20 cb 12 bd 9b 03 34 3f 2f cf 02 3e 95 06 aa 3e
       -0.035838246 0.70318 0.12774347 0.33208147
000010 ce 46 0f bd 45 36 49 bd f2 95 3d 3d b3 a1 38 3e
       -0.034979634 -0.04912402 0.046285577 0.18030433
000020 a4 d0 61 3c e4 27 b1 3e b7 c5 0d 3e e8 4e 86 bd
       0.013782654 0.34600747 0.13844953 -0.06558019
000030 a9 ef c0 3e a6 c7 8d 3d c0 ad ae bd af 08 c0 3e
       0.37682846 0.069228455 -0.08529234 0.37506625
000040 0a 72 4d 3e dd 58 67 3e 5d e9 2f 3e 77 ab 6e 3e
       0.20063034 0.22592492 0.17178865 0.23307596
000050 9f 49 26 3e ac dd 6f 3e 2a b3 01 3f fc c8 16 3e
       0.16239022 0.23424405 0.5066401 0.14725107
000060 bd e7 d2 bd b8 dd 2c 3e 53 61 23 3e 61 f4 ee 3d
       -0.10298107 0.16881454 0.15955095 0.11667705
000070 0f f2 26 3c 03 ac 85 3e 27 1c 3e 3e 47 b2 d9 bd
       0.010189547 0.26107797 0.18565427 -0.10629707

conv2d_12/kernel u1 [32, 3, 3, 64] scale=0.008830209 zero_point=0
000000 09 f6 09 fe 0a eb e1 e1 fd fa 0d fc 0b d3 0e 04
       0.079471886 2.1722314 0.079471886 2.2428732 0.08830209 2.0750992 1.9867971 1.9867971 2.234043 2.2075524 0.11479272 2.2252128 0.0971323 1.8631742 0.12362293 0.035320837
000010 fd 02 09 0f 09 fe 17 f4 02 f1 0a fc f8 fc 14 06
       2.234043 0.017660419 0.079471886 0.13245314 0.079471886 2.2428732 0.20309481 2.154571 0.017660419 2.1280804 0.08830209 2.2252128 2.1898918 2.2252128 0.17660418 0.052981257
000020 f6 eb 02 e2 f6 02 d7 e4 07 04 e7 d1 03 04 fe 0f
       2.1722314 2.0750992 0.017660419 1.9956273 2.1722314 0.017660419 1.898495 2.0132878 0.061811466 0.035320837 2.0397782 1.8455137 0.026490629 0.035320837 2.2428732 0.13245314
000030 fd c7 09 e6 10 fc e3 ee 1f fa 09 ae f7 f0 ff f7
       2.234043 1.7572117 0.079471886 2.0309482 0.14128335 2.2252128 2.0044575 2.10159 0.27373648 2.2075524 0.079471886 1.5364565 2.1810617 2.1192503 2.2517033 2.1810617
000040 06 ec fc 0d 06 06 e5 f3 04 f4 f0 fd 02 ed f8 e8
       0.052981257 2.0839293 2.2252128 0.11479272 0.052981257 0.052981257 2.0221179 2.1457407 0.035320837 2.154571 2.1192503 2.234043 0.017660419 2.0927596 2.1898918 2.0486085
000050 05 f7 ff 03 0e 0f 10 f5 f9 02 02 06 07 09 0c 0a
       0.044151045 2.1810617 2.2517033 0.026490629 0.12362293 0.13245314 0.14128335 2.1634014 2.1987221 0.017660419 0.017660419 0.052981257 0.061811466 0.079471886 0.105962515 0.08830209
000060 0d dc 0f cb f4 fd e3 e3 04 03 11 e6 f1 11 e8 1a
       0.11479272 1.942646 0.13245314 1.7925324 2.154571 2.234043 2.0044575 2.0044575 0.035320837 0.026490629 0.15011355 2.0309482 2.1280804 0.15011355 2.0486085 0.22958544
000070 ea c7 13 ef 02 0c f9 05 18 ea fc cf eb e8 ef 01
       2.066269 1.7572117 0.16777398 2.11042 0.017660419 0.105962515 2.1987221 0.044151045 0.21192503 2.066269 2.2252128 1.8278533 2.0750992 2.0486085 2.11042 0.008830209
000080 04 f3 04 05 ff 09 e9 06 f4 f4 f2 08 ef f1 14 fb
       0.035320837 2.1457407 0.035320837 0.044151045 2.2517033 0.079471886 2.0574389 0.052981257 2.154571 2.154571 2.1369107 0.070641674 2.11042 2.1280804 0.17660418 2.2163825
000090 09 ff 07 14 13 07 01 05 f0 01 08 07 f8 06 f9 08
       0.079471886 2.2517033 0.061811466 0.17660418 0.16777398 0.061811466 0.008830209 0.044151045 2.1192503 0.008830209 0.070641674 0.061811466 2.1898918 0.052981257 2.1987221 0.070641674
0000a0 01 e9 0b ef ff f2 e1 e1 ee 10 15 c7 08 fc d5 08
       0.008830209 2.0574389 0.0971323 2.11042 2.2517033 2.1369107 1.9867971 1.9867971 2.10159 0.14128335 0.1854344 1.7572117 0.070641674 2.2252128 1.8808346 0.070641674
0000b0 ee f3 0a 0b f0 0b f0 ef 13 dc f6 a6 eb f4 e7 fd
       2.10159 2.1457407 0.08830209 0.0971323 2.1192503 0.0971323 2.1192503 2.11042 0.16777398 1.942646 2.1722314 1.4658147 2.0750992 2.154571 2.0397782 2.234043
0000c0 02 f1 01 0a fe 02 f3 02 06 10 f0 fb 07 e9 04 07
       0.017660419 2.1280804 0.008830209 0.08830209 2.2428732 0.017660419 2.1457407 0.017660419 0.052981257 0.14128335 2.1192503 2.2163825 0.061811466 2.0574389 0.035320837 0.061811466
0000d0 00 03 00 01 02 13 0c f9 f9 08 0e 06 04 0f 13 0a
       0.0 0.026490629 0.0 0.008830209 0.017660419 0.16777398 0.105962515 2.1987221 2.1987221 0.070641674 0.12362293 0.052981257 0.035320837 0.13245314 0.16777398 0.08830209
0000e0 01 e5 09 d0 06 0c d9 f7 14 07 d7 e5 ff f2 d5 01
       0.008830209 2.0221179 0.079471886 1.8366835 0.052981257 0.105962515 1.9161555 2.1810617 0.17660418 0.061811466 1.898495 2.0221179 2.2517033 2.1369107 1.8808346 0.008830209
0000f0 e1 d7 14 f9 1f 1d e4 d3 16 f2 06 f5 0d e5 02 f5
       1.9867971 1.898495 0.17660418 2.1987221 0.27373648 0.25607607 2.0132878 1.8631742 0.1942646 2.1369107 0.052981257 2.1634014 0.11479272 2.0221179 0.017660419 2.1634014

conv2d_13/Conv2D_bias f4 [32]
000000 1e 4e 54 3e 31 7f b2 3e 5f 6d cd be 1a de 0a 3f
       0.20732924 0.34862664 -0.40122506 0.5424515
000010 56 db 0e 3f ac 6c cd 3d bc 74 99 3c 8b e6 0f 3f
       0.5580343 0.10030493 0.018732421 0.56211156
000020 75 69 86 3e d6 92 0e 3f 9b 0b 2f 3e 70 24 69 bd
       0.26252332 0.55692804 0.17094271 -0.056919515
000030 88 9b 5e bd ff 5f 72 3c 2a c7 87 bd 66 c8 80 3e
       -0.054347545 0.014793395 -0.066297844 0.25152892
000040 97 3b f0 3c f3 1b 00 3f 54 c7 58 3e 85 8f d7 3e
       0.02932529 0.5004265 0.21169788 0.42101684
000050 01 f7 a2 3b 82 8c 44 3f 88 f0 86 3e b1 0c cc 3e
       0.004973293 0.767769 0.26355386 0.39853433
000060 aa 29 88 bd 6a 52 6b 3e 53 78 e6 3e f4 e9 43 3e
       -0.06648572 0.22980657 0.45013675 0.19132215
000070 1e 2e 84 be d0 03 10 3e bd cd ec 3e 53 9d 4a 3e
       -0.25816435 0.14063954 0.46250716 0.19786577

conv2d_13/kernel u1 [32, 3, 3, 32] scale=0.010126424 zero_point=0
000000 db 24 17 e5 03 e7 0c 0d fb fa 1d 0e f1 08 10 04
       2.217687 0.36455128 0.23290776 2.3189511 0.030379273 2.3392038 0.12151709 0.13164352 2.5417323 2.531606 0.2936663 0.14176993 2.440468 0.08101139 0.16202278 0.040505696
000010 ec ee fb fc fb 0a 05 f8 f8 ef eb eb e6 fe de ff
       2.389836 2.410089 2.5417323 2.551859 2.5417323 0.10126424 0.05063212 2.5113533 2.5113533 2.4202154 2.3797097 2.3797097 2.3290775 2.5721116 2.2480662 2.5822382
000020 01 18 10 fa 01 00 fc f3 0c f1 0a 03 07 0f 03 0e
       0.010126424 0.24303418 0.16202278 2.531606 0.010126424 0.0 2.551859 2.460721 0.12151709 2.440468 0.10126424 0.030379273 0.070884965 0.15189636 0.030379273 0.14176993
000030 f8 f5 ef fd 08 06 09 0b f5 fc f9 0b 00 f4 fa 01
       2.5113533 2.480974 2.4202154 2.5619853 0.08101139 0.060758546 0.09113782 0.111390665 2.480974 2.551859 2.5214796 0.111390665 0.0 2.4708474 2.531606 0.010126424
000040 00 10 06 09 f7 11 cd ed 15 09 0b 18 f4 0a e4 1b
       0.0 0.16202278 0.060758546 0.09113782 2.5012267 0.17214921 2.075917 2.3999624 0.2126549 0.09113782 0.111390665 0.24303418 2.4708474 0.10126424 2.3088248 0.27341345
000050 ee 11 f3 09 0f 07 13 09 e6 fe f7 eb f1 f3 eb f9
       2.410089 0.17214921 2.460721 0.09113782 0.15189636 0.070884965 0.19240205 0.09113782 2.3290775 2.5721116 2.5012267 2.3797097 2.440468 2.460721 2.3797097 2.5214796
000060 fb f7 04 00 04 ee 0a 18 f3 02 17 fc fe 02 05 0f
       2.5417323 2.5012267 0.040505696 0.0 0.040505696 2.410089 0.10126424 0.24303418 2.460721 0.020252848 0.23290776 2.551859 2.5721116 0.020252848 0.05063212 0.15189636
000070 04 ec ed 03 03 04 fb fa 01 f9 e2 ef 00 03 fb 0e
       0.040505696 2.389836 2.3999624 0.030379273 0.030379273 0.040505696 2.5417323 2.531606 0.010126424 2.5214796 2.2885718 2.4202154 0.0 0.030379273 2.5417323 0.14176993
000080 0e f4 fc 02 0f 0e ff 04 ff f7 10 00 0a 03 0a ff
       0.14176993 2.4708474 2.551859 0.020252848 0.15189636 0.14176993 2.5822382 0.040505696 2.5822382 2.5012267 0.16202278 0.0 0.10126424 0.030379273 0.10126424 2.5822382
000090 0e f9 e2 0d 06 fc fd 0a 00 f8 f5 ff 0e f6 03 0e
       0.14176993 2.5214796 2.2885718 0.13164352 0.060758546 2.551859 2.5619853 0.10126424 0.0 2.5113533 2.480974 2.5822382 0.14176993 2.4911003 0.030379273 0.14176993
0000a0 f4 fa 0a 0a fa 16 ec f8 0e fd 0c 0d 00 fe ff fc
       2.4708474 2.531606 0.10126424 0.10126424 2.531606 0.22278133 2.389836 2.5113533 0.14176993 2.5619853 0.12151709 0.13164352 0.0 2.5721116 2.5822382 2.551859
0000b0 f6 06 ff 18 07 03 f5 05 f4 02 ec f0 09 f2 ef 02
       2.4911003 0.060758546 2.5822382 0.24303418 0.070884965 0.030379273 2.480974 0.05063212 2.4708474 0.020252848 2.389836 2.4303417 0.09113782 2.4505947 2.4202154 0.020252848
0000c0 de fc 09 06 f4 e8 fb 1b e3 fe 16 f3 ef 03 0c fc
       2.2480662 2.551859 0.09113782 0.060758546 2.4708474 2.3493304 2.5417323 0.27341345 2.2986982 2.5721116 0.22278133 2.460721 2.4202154 0.030379273 0.12151709 2.551859
0000d0 02 fb cc 0e 10 fc 03 f2 d3 15 df cd 06 fe fd ff
       0.020252848 2.5417323 2.0657904 0.14176993 0.16202278 2.551859 0.030379273 2.4505947 2.1366754 0.2126549 2.2581925 2.075917 0.060758546 2.5721116 2.5619853 2.5822382
0000e0 0b f6 fb 12 04 0c f6 03 02 fc 09 fd 05 00 0a f0
       0.111390665 2.4911003 2.5417323 0.18227564 0.040505696 0.12151709 2.4911003 0.030379273 0.020252848 2.551859 0.09113782 2.5619853 0.05063212 0.0 0.10126424 2.4303417
0000f0 07 f4 ec 12 07 f8 07 07 fe 0b f5 f5 07 f7 fe 0b
       0.070884965 2.4708474 2.389836 0.18227564 0.070884965 2.5113533 0.070884965 0.070884965 2.5721116 0.111390665 2.480974 2.480974 0.070884965 2.5012267 2.5721116 0.111390665

conv2d_14/Conv2D_bias f4 [16]
000000 cb 90 05 3f ce d7 14 bf 39 eb 35 bd 0a 9d 4a 3e
       0.5217406 -0.5814179 -0.04441378 0.19786468
000010 8c 21 04 3e e8 79 04 3e 63 cc 5c 3e 8a ad 9b 3e
       0.12903422 0.12937129 0.21562342 0.30405837
000020 02 c0 9f bd 05 f8 b9 3c 10 00 93 3d cd e2 cd 3d
       -0.078002945 0.022701273 0.07177746 0.100530244
000030 89 95 68 3d 79 fe 81 3e d6 b8 e6 3d 41 cc 7d be
       0.056783233 0.2538946 0.112657234 -0.24784948

conv2d_14/kernel u1 [16, 3, 3, 32] scale=0.006999993 zero_point=0
000000 00 11 0b fb e9 0b e3 03 0f 18 05 15 f7 06 f5 0f
       0.0 0.11899988 0.076999925 1.7569983 1.6309984 0.076999925 1.5889984 0.02099998 0.1049999 0.16799983 0.034999967 0.14699985 1.7289983 0.04199996 1.7149984 0.1049999
000010 f5 f7 15 fb e7 f8 fd fc fe fc 04 ff f8 00 14 0d
       1.7149984 1.7289983 0.14699985 1.7569983 1.6169984 1.7359983 1.7709982 1.7639983 1.7779983 1.7639983 0.027999973 1.7849983 1.7359983 0.0 0.13999987 0.09099991
000020 0b e5 ee 02 fb fe 00 fc 0c 10 ea 0c 07 e6 f3 fd
       0.076999925 1.6029985 1.6659983 0.013999986 1.7569983 1.7779983 0.0 1.7639983 0.08399992 0.11199989 1.6379985 0.08399992 0.048999954 1.6099985 1.7009983 1.7709982
000030 ee e8 f8 06 fb e2 0f f2 fe fc e6 13 0e 03 e9 04
       1.6659983 1.6239984 1.7359983 0.04199996 1.7569983 1.5819985 0.1049999 1.6939983 1.7779983 1.7639983 1.6099985 0.13299987 0.09799991 0.02099998 1.6309984 0.027999973
000040 f0 f2 d2 fc fa f7 ef fe 0f 19 00 48 17 ed 0b fa
       1.6799984 1.6939983 1.4699986 1.7639983 1.7499983 1.7289983 1.6729984 1.7779983 0.1049999 0.17499983 0.0 0.50399953 0.16099985 1.6589984 0.076999925 1.7499983
000050 14 04 25 0c 07 e7 19 e6 f5 e7 e0 11 1c e9 fa 0a
       0.13999987 0.027999973 0.25899974 0.08399992 0.048999954 1.6169984 0.17499983 1.6099985 1.7149984 1.6169984 1.5679985 0.11899988 0.19599982 1.6309984 1.7499983 0.06999993
000060 ea 18 f6 03 f8 f5 ed f8 fd f9 13 09 10 e7 12 f4
       1.6379985 0.16799983 1.7219983 0.02099998 1.7359983 1.7149984 1.6589984 1.7359983 1.7709982 1.7429984 0.13299987 0.06299994 0.11199989 1.6169984 0.12599988 1.7079984
000070 03 f9 0b ee ee 1c ee 04 02 f0 08 f5 ff 0f f7 f0
       0.02099998 1.7429984 0.076999925 1.6659983 1.6659983 0.19599982 1.6659983 0.027999973 0.013999986 1.6799984 0.055999946 1.7149984 1.7849983 0.1049999 1.7289983 1.6799984
000080 08 09 08 01 15 2e f4 07 0b ec f7 f6 f7 0c f5 04
       0.055999946 0.06299994 0.055999946 0.006999993 0.14699985 0.3219997 1.7079984 0.048999954 0.076999925 1.6519984 1.7289983 1.7219983 1.7289983 0.08399992 1.7149984 0.027999973
000090 f0 fd f2 f2 eb f4 f4 0f 17 fd 02 0d fb 05 00 f4
       1.6799984 1.7709982 1.6939983 1.6939983 1.6449984 1.7079984 1.7079984 0.1049999 0.16099985 1.7709982 0.013999986 0.09099991 1.7569983 0.034999967 0.0 1.7079984
0000a0 00 f8 e9 0b f1 e0 08 ed ef 08 e7 fa ff de fa eb
       0.0 1.7359983 1.6309984 0.076999925 1.6869984 1.5679985 0.055999946 1.6589984 1.6729984 0.055999946 1.6169984 1.7499983 1.7849983 1.5539985 1.7499983 1.6449984
0000b0 ef 14 0e fc fd 21 eb 03 f6 05 f9 f8 0a f8 09 f5
       1.6729984 0.13999987 0.09799991 1.7639983 1.7709982 0.23099978 1.6449984 0.02099998 1.7219983 0.034999967 1.7429984 1.7359983 0.06999993 1.7359983 0.06299994 1.7149984
0000c0 07 15 04 e4 2a 0c f6 40 17 d1 00 26 23 e3 26 21
       0.048999954 0.14699985 0.027999973 1.5959984 0.2939997 0.08399992 1.7219983 0.44799957 0.16099985 1.4629986 0.0 0.26599973 0.24499977 1.5889984 0.26599973 0.23099978
0000d0 05 ee 01 05 03 05 05 13 0d fb 26 f0 f3 f4 f2 01
       0.034999967 1.6659983 0.006999993 0.034999967 0.02099998 0.034999967 0.034999967 0.13299987 0.09099991 1.7569983 0.26599973 1.6799984 1.7009983 1.7079984 1.6939983 0.006999993
0000e0 f5 1a ff f9 f7 fb 0b 02 09 fc ef f3 16 10 07 0d
       1.7149984 0.18199982 1.7849983 1.7429984 1.7289983 1.7569983 0.076999925 0.013999986 0.06299994 1.7639983 1.6729984 1.7009983 0.15399985 0.11199989 0.048999954 0.09099991
0000f0 ee f7 e6 f5 03 00 fb 03 f7 f9 0c 05 fe fc f5 e4
       1.6659983 1.7289983 1.6099985 1.7149984 0.02099998 0.0 1.7569983 0.02099998 1.7289983 1.7429984 0.08399992 0.034999967 1.7779983 1.7639983 1.7149984 1.5959984
